Initializing identifier
Creating Model
_________________________________________________________________
Layer (type)                 Output Shape              Param #   
=================================================================
input_1 (InputLayer)         (None, 200)               0         
_________________________________________________________________
embedding_1 (Embedding)      (None, 200, 32)           2304      
_________________________________________________________________
lstm_1 (LSTM)                (None, 200)               186400    
_________________________________________________________________
dense_1 (Dense)              (None, 8)                 1608      
_________________________________________________________________
dense_2 (Dense)              (None, 1)                 9         
=================================================================
Total params: 190,321
Trainable params: 190,321
Non-trainable params: 0
_________________________________________________________________
Loading weights
/home/vitormelo/poc/scrapper/repos/prisma/
Separating File: types.ts
prisma,v0.0.3,/home/vitormelo/poc/scrapper/repos/prisma/src/types.ts,79,0,0,0
Separating File: index.ts
…
